experiments/structure_predictions/trussart_robustness_to_noise/experiment_results/bi_lstm/non_ae_synthetic_random_bi_lstm_model_lambda_200_0.1.pt (torch, 24211 bytes, 10 tensors)

weight_ih_l0 f4 [12, 202]
00000000: 9520 563c c611 a1bd 143e d13d f14a 4e3e
00000010: 5813 bb3d 9a0e 54bc b052 d8bc da48 dc3d
00000020: db4f df3d 0e7a 083d 2522 f83d c1fe 613b
00000030: 10d8 333e 6ca4 1d3e 39d1 cc3d 2370 913d
00000040: 3e7c 733c 3542 013e 8d4e 893d 8629 3c3e
00000050: 48e8 e5bd 4955 563d 7fbe ec3d c02b 01bc
00000060: a1d7 193e 6994 d4bb e95b ba3d 3400 a43d
00000070: babf c3bd 1bfc 97bd 4c21 843e 09e3 10bd
00000080: 606f 71bc 2c2e 183e 175d 1a3e 2c0c 983d
00000090: 6075 703d aabd f63d fb85 453d 6f44 e3bd
000000a0: b621 a13c 4732 fd3d a88d e53d 8902 143e
000000b0: 95bb 19ba 79c5 293e 91af 113e 7a4a 49bd
000000c0: e574 e33d 2393 6f3d 8365 14be 22b2 c93d
000000d0: 7aca 3d3d 20b8 873e f5a2 1a3e fd86 c3bd
000000e0: e53d d53d 40d4 95bb a59d 363e cd7d 063e
000000f0: e745 223e b0a0 c43d 30bb 02bd 8350 4a3e
00000100: 81df c23d decb 82bd a662 c2bd cd1a 82bd
00000110: f998 7e3c 4c35 9b3d 95de 1bbe c6ba a5bd
00000120: 836d b53d b061 97bd 58a3 0b3e bcba 873d
00000130: 7f2c b93e 1e00 20be 888d 5d3d 94a2 9cbd
00000140: 69f2 913c 3545 e33d 4562 18bd af32 373e
00000150: b514 42bd e266 6a3d 8c53 f93d ce70 9ebc
00000160: 8c87 cb3d 8fea f13b 20ab 783e 37c9 963c
00000170: 1ec1 253e 19d8 3e3d 9688 103e fb8a a33c
00000180: e2b0 ba3d 57c3 873d 6c0b 033e 2994 7fbd
00000190: ef9c d93c f402 dfbc f409 fb3d 2345 ebbd
000001a0: b003 9b3d a3b6 2b3d cd12 1d3d 4907 bf3d
000001b0: 88f1 3c3e 8380 b03a cd88 e3bc 541f 2d3e
000001c0: ffc8 ee3d 5dbb 093e 623c 0b3e 678d 6dbb
000001d0: e95a d7bd de42 7d3d e587 063e b760 a13c
000001e0: b1c4 953d 9da2 39bd d7af 1e3e be05 a23d
000001f0: 5b7b c33d ae8f d8bc 93c6 e03d d98a a53d
00000200: 8298 653e 1885 69bc c263 253e 97d6 f23d
00000210: 3b03 9a3d 6fec 9dbd 811f 1fbe abf3 213e
00000220: 33ac e63d 6169 64bd b654 323e c800 133e
00000230: 50f3 773d 5a34 eb3d 4440 033e 68d8 593d
00000240: 257a 4f3d 3020 6b3e 6df6 f9bb da27 3a3d
00000250: 2481 0e3e b465 c23d c4af 5d3e 8752 183e
00000260: f316 a2bc d271 5bbb 9347 953c a3d7 fcbd
00000270: 7602 373e a3cd 2abe 4f91 c53d 043f 173d
00000280: 6659 e6bc 0e97 2e3d bf85 943d cd75 16bd
00000290: 68e1 d5bd 4423 12be 1d2a d4bb cb6e 4d3e
000002a0: ee4d 243e 16c3 203e ac83 863c e1d3 30be
000002b0: fad9 263d a3df b8bd 6fb7 e8bd 70e5 253d
000002c0: 623a 463d 0e78 b2bd 18a1 263e abd3 13be
000002d0: eac0 3e3b 7950 243d 4c4c 303d 0651 d4bd
000002e0: dcd2 08bc a63c 003d d7a5 2e3e 0c09 9c3c
000002f0: 2f25 543d 806c ef3d 3938 81bd 9536 bd3d
00000300: f17a 3a3e 1bad 403e 4016 103e f13e e63d
00000310: 8089 ba3d 22a9 b2bd 326f c43d 5972 76bd
00000320: db64 8e3c 31e7 173e 5312 a83c 10e3 93bb
00000330: 1d10 2b3e 2679 1ebd 6124 f83d 196d 8bbd
00000340: 0290 b53b c749 053d 1c05 a6bd 7ca3 20bc
00000350: 6e9b 70be 693a 4ebe b1e3 65bd fb7e e0bc
00000360: 57f8 80bd d6e2 1e3d 27dc 7f3d 518b 2bbd
00000370: c01d 5f3e 8a2a a43c 66ad 043e 3a30 583e
00000380: f9c7 2a3e 7878 2a3e 46db f83d f329 693d
00000390: 8537 a13d 56ea d03c 0982 7b3d b7df e13b
000003a0: b9b8 5abc dee2 83bc c26d 083d d695 203d
000003b0: e971 2b3e 8b6a 10bc 593e f13d 5dda 853d
000003c0: fbd9 993d f742 743d f550 a6bc b856 3abd
000003d0: e3cd 5d3c cbc9 a9bd a771 bbbd 97a5 a63d
000003e0: c398 9abc fff9 b2bd 5e9d bc3d 4ba1 fdbd
000003f0: d364 a03d ecdb 09bc d623 11be eb73 2bbd
0.013069292 -0.07864718 0.102169186 0.20145775 0.09134549 -0.012942934 -0.026406616 0.10756083
0.10903903 0.033319525 0.121158876 0.003448412 0.1756289 0.15394753 0.100008436 0.071014665
0.014861165 0.12622912 0.067044355 0.18375215 -0.11225945 0.052327428 0.11559772 -0.007883966
0.15023662 -0.0064874184 0.09099562 0.08007851 -0.09558053 -0.07421132 0.25806653 -0.035372768
-0.0147360265 0.14861363 0.15074573 0.074241966 0.058705688 0.12047894 0.048223477 -0.11097037
0.019669395 0.12363105 0.112086594 0.14454092 -0.0005864439 0.16579236 0.1422713 -0.049143292
0.1110628 0.05848993 -0.14491849 0.09848429 0.046335675 0.26507664 0.15101226 -0.09547231
0.10412196 -0.0045724213 0.17833574 0.13133927 0.15846978 0.09600961 -0.031916797 0.19757275
0.09515286 -0.06386541 -0.09491472 -0.06352768 0.015539401 0.07578525 -0.15221627 -0.08092265
0.08858778 -0.07391679 0.1363653 0.06627414 0.3616676 -0.15625045 0.054090053 -0.07648197
0.017815785 0.110971846 -0.037203092 0.17890428 -0.04738303 0.057227023 0.121741384 -0.019340899
0.09937963 0.007382698 0.24284029 0.018406494 0.1618695 0.046592806 0.14114603 0.019963732
0.09115769 0.06629055 0.12797326 -0.062397156 0.02656409 -0.027223088 0.12257758 -0.11487796
0.07569063 0.041922223 0.038348008 0.093275614 0.18451512 0.0013466034 -0.027775193 0.16906482
0.11659431 0.1345038 0.13597253 -0.0036247612 -0.105153866 0.061831348 0.13137777 0.019699438
0.073129065 -0.045321096 0.15496765 0.079112515 0.095450126 -0.0264357 0.10975375 0.08083124
0.22421458 -0.014252923 0.16151336 0.11857336 0.075201474 -0.07711112 -0.15539362 0.15815608
0.11263313 -0.05576456 0.17415127 0.14355767 0.060534775 0.11484595 0.12817484 0.053184897
0.050653595 0.22961497 -0.007628253 0.04544816 0.1391645 0.094920546 0.2164908 0.14875232
-0.019786334 -0.003348459 0.018222606 -0.12345817 0.17872033 -0.16680007 0.09646856 0.03692533
-0.0281188 0.042624526 0.072520725 -0.036733437 -0.104433835 -0.14271265 -0.006474747 0.20061795
0.16045353 0.1569942 0.016420208 -0.17268325 0.040735222 -0.0902703 -0.11363112 0.04050201
0.048395522 -0.08714305 0.1627239 -0.14436214 0.0029106685 0.040115807 0.043041512 -0.103670165
-0.008351054 0.03130784 0.1705545 0.019047283 0.051793274 0.116906166 -0.06309552 0.09238926
0.18210961 0.18816034 0.14070988 0.11242474 0.09108257 -0.08723666 0.09591521 -0.060167644
0.017382076 0.14834286 0.02051655 -0.004513152 0.16705365 -0.038689755 0.12116314 -0.06807918
0.0055408487 0.032541063 -0.08106443 -0.009804603 -0.23496792 -0.20139469 -0.056125347 -0.027404299
-0.06297367 0.038790546 0.062465813 -0.04188091 0.21788692 0.020039815 0.12956771 0.21112147
0.16677846 0.16647518 0.12151198 0.05692477 0.07871918 0.025502365 0.061403308 0.006893124
-0.013349705 -0.01609939 0.0333078 0.039205395 0.16742672 -0.008814464 0.1177947 0.0653579
0.075122796 0.059634175 -0.020302275 -0.045492858 0.013537857 -0.08290442 -0.09152537 0.081370525
-0.01887167 -0.08739089 0.09209703 -0.1238428 0.07831731 -0.00841425 -0.14173827 -0.041858595

weight_hh_l0 f4 [12, 3]
00000000: 3809 b63e da29 dc3e ed81 cf3e be15 813e
00000010: 1502 b83d e73e 7dbe 7701 5b3e 5a92 953e
00000020: 5a86 c93e b5ce 0fbd a183 f33e a0bd 38be
00000030: ecb6 5bbd b006 b73d bf34 88bf 1c89 65be
00000040: 70ab 023e 732a 81bd d2f6 aa3c e636 5bbe
00000050: a3ec 19bc 4584 b13e d2dd 203f 4518 c73e
00000060: c5cb 6bbe 8950 7e3e e5c1 e93e fb2a 55be
00000070: 7d37 e6be 51a3 513e a365 323f 3614 5fbe
00000080: c36b 3f3e 59e5 d53c c884 c1be acdb 893e
0.35553908 0.4300068 0.40528813 0.252119 0.08984772 -0.24731027 0.21387278 0.2921322
0.39360315 -0.03510924 0.47561362 -0.18041086 -0.053641245 0.089368224 -1.0641097 -0.22415584
0.1276071 -0.06306925 0.020869646 -0.21407661 -0.0093947975 0.34671226 0.6283847 0.38885704
-0.2302695 0.24835409 0.45655742 -0.20817177 -0.4496421 0.20472457 0.69686335 -0.21785054
0.18693452 0.026110338 -0.37796617 0.2692541

bias_ih_l0 f4 [12]
00000000: 671a 183d c761 fa3d 40ac fc3d 8958 1cbc
00000010: 9de4 b53d 5446 933d e7fb fb3c 8cc2 bbbd
00000020: c4b4 fbbc 7ad4 493d 6b1a a13d 0e44 1a3d
0.037134554 0.12225681 0.123375416 -0.009542593 0.08881495 0.071911484 0.030759765 -0.09167966
-0.030725844 0.0492749 0.07866367 0.03766256

bias_hh_l0 f4 [12]
00000000: 611a 183d c561 fa3d 3fac fc3d 8c58 1cbc
00000010: 97e4 b53d 5646 933d e5fb fb3c 8dc2 bbbd
00000020: c2b4 fbbc 82d4 493d 6b1a a13d 1144 1a3d
0.037134532 0.12225679 0.12337541 -0.009542596 0.08881491 0.0719115 0.030759761 -0.09167967
-0.03072584 0.04927493 0.07866367 0.03766257

weight_ih_l0_reverse f4 [12, 202]
00000000: 307a 35bc 2bc9 40be f3ff 763c 800f b7bd
00000010: 1df7 90bc 8aec 8cbe 75ba 61be 8660 063b
00000020: 4f0d 19be 4144 88be cae9 88bd 1426 dcbd
00000030: 5fdd 32be 26af a9be 703f 9cbd 04e8 983d
00000040: 3975 08be bb67 6bbc 9ada 8dbe 551c e2bd
00000050: d75d 28be e751 49be ec99 5abe e8f4 89bd
00000060: 890f 67be 6fe5 85bd 4fc3 74be b91a b8bd
00000070: c3e3 50be 536b 78bd 2c85 0fbe e068 5ebe
00000080: 7846 03be 475a 06be dfca a1bd d07b 62be
00000090: 3faa d6bd dbec 38be e441 4bbe 71a0 65be
000000a0: 2b44 33be 5774 94bd 103a 20bd 005b 8ebe
000000b0: 9a0f 06be 7944 8cbe fbf9 9fbd 3c61 16be
000000c0: 8b1c a8bd c1f7 813a e80e f8bd 6cca 773d
000000d0: 0fc5 863c 9017 16bd 794c a7bd 6194 4bbe
000000e0: a7ee fa3c 2169 05bc d4bd 30be 62f6 4dbe
000000f0: 5703 debd d1c1 1bbe 13d4 08bd 8766 47be
00000100: ec76 8dbc 81ac 10be 93a6 31be 505d fb3c
00000110: 8850 88bd 9195 cfbd a088 c5bd 4954 46be
00000120: e96f a3be f1d5 10be 8630 26bd eae9 e0bd
00000130: fa0a febd bd5d d3ba 65a8 f4bd a22a 713b
00000140: f606 34be 1175 15be 4910 40be 5637 d3bb
00000150: 2618 31bb e4b4 f5bb ea65 0cbd d564 f4bd
00000160: 0c40 0abe 3f32 e9bd 734e b3bd 69ec 6dbd
00000170: 65da 7ebd 9b4d 44bd 8b87 8dbd 7570 61bc
00000180: cae4 3abd f942 02bd fc12 a3bd cc0e 54bd
00000190: 2902 f1bc 92a3 0abe 657b f9bc 21ab 023d
000001a0: abce 0fbe 67cc 303d ac88 d2bd 9dfa 963d
000001b0: eabf fb3b 829a 53be b748 09be 9597 e93d
000001c0: af99 fe3c eb5c 69be a81b ebbd 6011 a3bd
000001d0: d4e6 a3bd 858b aa3d 200c 0c3e 5011 15be
000001e0: fd2d e5bb 0f39 a5bd 0212 60bd 1a5a 11bd
000001f0: 3052 eabc a7d2 223d 0428 743c 34eb 813e
00000200: 8aac a33c 8444 ce3c f341 e5bb 9d63 a1bc
00000210: 4f75 eebd 4447 cf3c ebbf 09be 3f7e 543c
00000220: 989e 01be c599 e3bd 9aef 3d3d 899d 00bd
00000230: 3e21 063e 7840 96bc 76da 313d 7ffb 393b
00000240: 1e14 09bd b9f9 96bd 0b50 b33c 5f65 f8bd
00000250: 1de9 27be a241 543c e6ff f43d 8e72 cfbc
00000260: 06f1 0abe 4ff9 c33d 9a10 b83c 563b 94bd
00000270: b867 9bbd 03ae 693c 0dfd 16be 53ae 873c
00000280: 2fbe 46bd d150 e73c f791 0bbe 4f5c 4ebd
00000290: 1691 14bd f872 19bd 7585 da3c bcca fcbc
000002a0: f91b 28be 8c33 aa3d d93b c03d e2cb e73c
000002b0: 2a32 243d 6f7a 67bc e6de 26bd 04b6 62bb
000002c0: c44c e7bc 10d1 fb3d e7f8 98ba f42f aa3d
000002d0: 43bc a5bd 1137 75bd d4b2 57bd 33e8 d33d
000002e0: 50fb 6abc 5a32 48bd fbdc 03bd dc4c 8f3d
000002f0: 1249 0abe cd53 fabd 6834 85be 2094 93bc
00000300: dc90 5fbe c315 513d b3b2 aa3d 884f 38bd
00000310: a74a 31bd 6fe6 6d3e 4b72 363d ef5a 19be
00000320: b148 1fbd 8faa 7bbe 4a7c 033d eb2a 17be
00000330: b384 81bd 72f6 d9bd eed2 a23d 6a9a a73d
00000340: b4f4 d93d 2c62 a33d 3a84 92bd 2f4a ce3a
00000350: 57c0 4139 3196 44bd 6c4d 09be 0b2b cdbd
00000360: ab55 04be c4f9 5e3d 4e22 8b3d 8a8e 823d
00000370: a4f0 ab3d c8a7 3dbc 5003 493c cd37 19be
00000380: c508 c6bd 89a1 04be c4ae 0fbe 2d18 99bd
00000390: 57a4 17be 5547 89bd b647 c93c e6fd e3bc
000003a0: 6947 0abe b774 83bb 1df6 b4bd 3d38 89bd
000003b0: a279 1cbc 212a 5b3d 08df 89bd 1c68 e5bc
000003c0: 46b5 3bbd 315a a2bc ccbd 993d ee9b 92bd
000003d0: 7046 cf3a cbf7 4ebe 88ee acbd f705 703d
000003e0: 8020 a6bd 9024 9cbd 6738 ba3c 5568 163e
000003f0: e646 033e 461a 003d f18b df3d 4173 303c
-0.011076495 -0.1882674 0.0150756715 -0.08938503 -0.017695958 -0.27524215 -0.22043784 0.002050431
-0.14946483 -0.26614574 -0.06685217 -0.1074945 -0.17467259 -0.3314144 -0.07629287 0.074661285
-0.13325967 -0.014367993 -0.27705842 -0.1104056 -0.16442047 -0.1966015 -0.21347779 -0.06736165
-0.2256452 -0.065379016 -0.2390263 -0.08989472 -0.20399384 -0.060649227 -0.14015645 -0.21719694
-0.1281985 -0.13120376 -0.07900023 -0.22117543 -0.104816906 -0.18059103 -0.19849354 -0.22424485
-0.17506473 -0.072487526 -0.039117873 -0.27803802 -0.13091889 -0.2739599 -0.07811352 -0.1468553
-0.08208569 0.0009915755 -0.12112218 0.06049578 0.016451387 -0.036643565 -0.08168883 -0.19880821
0.030631376 -0.0081427405 -0.17259914 -0.20113519 -0.10840481 -0.15210654 -0.033405375 -0.19472705
-0.01726862 -0.14128305 -0.173487 0.030684143 -0.06655985 -0.101359494 -0.096452 -0.1936809
-0.31921318 -0.14144112 -0.04057362 -0.109821156 -0.12404437 -0.0016125959 -0.11946181 0.0036799093
-0.1758078 -0.14595439 -0.18756212 -0.0064458055 -0.002702245 -0.0074983705 -0.03427688 -0.11933295
-0.13500994 -0.11386537 -0.087551974 -0.058086786 -0.062219996 -0.047925573 -0.069106184 -0.013759722
-0.045628347 -0.03180215 -0.07962605 -0.051771924 -0.029419975 -0.1353896 -0.030454347 0.031901482
-0.14043681 0.043163683 -0.10279974 0.073720194 0.00768279 -0.20664409 -0.13406645 0.11405865
0.031079141 -0.22789352 -0.114798844 -0.079622984 -0.08003011 0.083273925 0.136765 -0.14557385
-0.0069940076 -0.08067524 -0.054704674 -0.03548632 -0.028603643 0.039751675 0.014902119 0.25374758
0.019979734 0.025179155 -0.006996387 -0.01970082 -0.116434686 0.025302537 -0.13452117 0.012969553
-0.12658155 -0.111133136 0.04637108 -0.031400237 0.13098618 -0.018341288 0.04342123 0.0028378663
-0.03346645 -0.073718496 0.021888753 -0.1212871 -0.1639752 0.012955101 0.11962871 -0.025323179
-0.13568506 0.09569036 0.022468854 -0.0723788 -0.07588142 0.014262679 -0.14744969 0.016562616
-0.048521217 0.028236778 -0.136299 -0.050381 -0.036271177 -0.03746316 0.026674965 -0.03085839
-0.1641692 0.08310613 0.09386415 0.028295461 0.040086903 -0.014128312 -0.040739916 -0.0034593353
-0.028234847 0.12295735 -0.0011670858 0.083099276 -0.08092549 -0.05986697 -0.05266078 0.10347023
-0.014342144 -0.048876144 -0.032193165 0.06997082 -0.13504437 -0.12223015 -0.26016545 -0.018014967
-0.21832603 0.051046144 0.083348654 -0.044997722 -0.043284085 0.23232435 0.044542592 -0.14976095
-0.038887683 -0.24576782 0.032100953 -0.14762466 -0.063241385 -0.10642709 0.07950388 0.08183749
0.106423765 0.07977709 -0.071541265 0.0015738661 0.00018477566 -0.047994796 -0.1340844 -0.100179754
-0.12923305 0.054437414 0.067936525 0.063748434 0.08395508 -0.011575647 0.012268856 -0.14962693
-0.096696414 -0.12952246 -0.14031512 -0.07475314 -0.14808784 -0.06703059 0.024570327 -0.02783103
-0.13503803 -0.004011716 -0.08836005 -0.0670018 -0.009550484 0.053506974 -0.06731993 -0.028003745
-0.045827173 -0.019818397 0.07506904 -0.071586475 0.0015813839 -0.20211713 -0.08443934 0.05859944
-0.08111668 -0.07624161 0.022731973 0.14688237 0.12820014 0.031275056 0.109153636 0.010769666

weight_hh_l0_reverse f4 [12, 3]
00000000: 5e7f 05bf 5ca1 8bbe 3f7b abbe 1a6d cb3c
00000010: 130c cfbe 1e40 0cbe 7ab2 efbd c5ad e73d
00000020: 8056 7abf 2e60 2ebe 1769 edbe 3c70 6a3e
00000030: b7cb acbe 96ce 9a3e 6a8e 45be dddd 9cbc
00000040: e7ca bdbc 8f89 a03e 9874 363e 33e3 6e3d
00000050: e903 ec3e edef 23be ad9c a0be dea3 bebe
00000060: aded bd3e 339e 0cbe d3a1 21bf c196 6ebe
00000070: 2ffd e8be 7d46 5bbf 067b 85bf 72a9 d8be
00000080: 05f5 f13d f910 a6be 0673 fe3d 68c2 053c
-0.5214747 -0.27271545 -0.33492467 0.024832297 -0.404389 -0.13696334 -0.117039636 0.11312441
-0.9778824 -0.17028877 -0.4636924 0.22894377 -0.33749172 0.30235738 -0.19292608 -0.019148761
-0.02316804 0.3135495 0.17817914 0.058322143 0.46096733 -0.16009493 -0.31369534 -0.37234396
0.37095395 -0.13732223 -0.6313755 -0.23299696 -0.45505664 -0.8565443 -1.0428169 -0.42316777
0.11814312 -0.32434824 0.12424283 0.008164026

bias_ih_l0_reverse f4 [12]
00000000: b942 953b 0cf7 ddbc c6f9 c0bb aa9c c03c
00000010: 937d eb3c e979 bf3c f5a5 9ebc 8670 12bc
00000020: 63a4 dfbd ec2a 403d 1701 20bd 999f 003c
0.004555073 -0.02709534 -0.0058891503 0.023512203 0.028746402 0.023373561 -0.019366244 -0.0089379605
-0.10920026 0.046915933 -0.03906354 0.007850551

bias_hh_l0_reverse f4 [12]
00000000: c842 953b 0ef7 ddbc dbf9 c0bb a79c c03c
00000010: 937d eb3c e079 bf3c f4a5 9ebc 8c70 12bc
00000020: 63a4 dfbd e92a 403d 1a01 20bd 939f 003c
0.00455508 -0.027095344 -0.00588916 0.023512198 0.028746402 0.023373544 -0.019366242 -0.008937966
-0.10920026 0.046915922 -0.03906355 0.007850545

weight f4 [3, 6]
00000000: 56db 073c 2506 613b f362 3b3e 4430 b3be
00000010: d7b5 8f3e 8774 02bf ea0a 2f3e fe0b 6cbe
00000020: 502c e8bd e7dd c83e 92ee c7be 762a 0bbe
00000030: b36c 1e3e 932d cd3e 30a6 c4be 48d4 8c3d
00000040: 1258 de3e b0b3 8ebe
0.00829204 0.0034335938 0.18299465 -0.3499776 0.2806842 -0.50959057 0.17094007 -0.2305145
-0.11336577 0.39231798 -0.39049202 -0.13590416 0.15471153 0.40073833 -0.3840804 0.06876427
0.43426567 -0.27871466

bias f4 [3]
00000000: 41d9 883d 520b 70be 02fd 633d
0.06682063 -0.23441818 0.05566121
